app/src/main/ml/model.tflite (tflite, 148724 bytes, 10 tensors)

dense_1/bias f4 [3]
000000 c9 8d d4 3a 0c 03 94 bc 7c 44 80 3c
       0.0016216572 -0.01806786 0.015657656

dense/bias f4 [128]
000000 3e 1b 06 38 cd c4 8f bc ea b9 ed bb c6 ff 70 3c
       3.197346e-05 -0.017549897 -0.0072548287 0.014709419
000010 a0 3e 5c bb 0f a6 c7 bb f2 17 9f 3c c7 a8 5e 3c
       -0.0033606663 -0.006092794 0.019420598 0.013590044
000020 cb 55 40 3c a6 89 81 bc 3f 1c 93 bc d4 14 27 bc
       0.011739205 -0.015812706 -0.017957805 -0.010197837
000030 c2 f0 b4 3c 91 84 15 bc 60 c0 eb 3c 5b b8 65 bc
       0.022087459 -0.009125845 0.028778255 -0.014021005
000040 b3 57 f8 3b 54 40 f8 bb 19 ad 56 bc 2f c8 76 bb
       0.007578814 -0.007576028 -0.013102793 -0.003765594
000050 8e 96 b5 3c c0 15 03 bc b4 ce 45 3b a9 a4 7f bc
       0.022166517 -0.008000791 0.003018302 -0.015603223
000060 bf d9 22 3c 00 00 00 00 69 24 60 3c 98 56 47 bb
       0.00993961 0.0 0.013680556 -0.0030416604
000070 a9 2a 87 bc f6 20 1a bb 8e 80 90 bb 90 19 ac bb
       -0.016499834 -0.0023518181 -0.004409856 -0.0052520707
000080 4d 67 d2 3c 96 e4 7c 3c 92 cd 28 ba 90 03 a9 3b
       0.025684023 0.0154353585 -0.0006439324 0.0051578954
000090 75 ed a2 3c c7 a8 25 bc 6b 53 cd 3c a8 d6 d1 3c
       0.019888619 -0.01011104 0.02506419 0.025615051
0000a0 34 24 b7 3b 59 06 f2 3a 7d 75 f5 3c a9 5d 7e 3b
       0.0055890325 0.0018465027 0.02996325 0.003881315
0000b0 5e ac c4 bb 00 00 00 00 ed 0c 23 3c 54 18 a9 3b
       -0.006001993 0.0 0.009951812 0.005160371
0000c0 75 fa f5 bb b8 01 65 3c a2 f1 cc bb 6e 51 b9 3c
       -0.0075066634 0.013977461 -0.006254391 0.022621837
0000d0 b7 1c 87 bc a9 b6 28 bb f2 6f ea bb e3 e6 0f bc
       -0.016493184 -0.002574364 -0.007154458 -0.008783075
0000e0 25 4e 1f bc 2d a0 80 3c 17 77 91 3c 40 1a 24 bc
       -0.009723221 0.015701378 0.017756982 -0.010016024
0000f0 5b 19 b5 3b 38 16 0e 3a db 62 a7 bb 00 00 00 00
       0.0055267042 0.0005420181 -0.00510822 0.0
000100 d9 1b 2e 3b f4 e4 91 3c d2 73 9c bc 3c 57 e7 3c
       0.0026566891 0.017809369 -0.019098196 0.028239839
000110 ac a6 c1 3b 9b 14 a0 3c 1a 79 39 3c c8 d3 ab bb
       0.0059097614 0.019541075 0.011320377 -0.005243752
000120 e9 97 ae bb 53 1d 1f bc 35 59 ba 3c d4 3a 6e bb
       -0.0053281677 -0.009711581 0.022747615 -0.0036350982
000130 eb b4 6e bb 60 09 6d bb 92 35 37 bc 8c 40 98 3c
       -0.0036423753 -0.0036168918 -0.011182206 0.018585466
000140 d3 d7 4c bb 64 69 ae 3c b7 6e 14 bc 00 00 00 00
       -0.003125657 0.021290489 -0.0090596 0.0
000150 12 7b 44 b8 1c 2c 13 bc 6d 88 9f 3c 3c 1d 42 bc
       -4.684466e-05 -0.008982684 0.019474233 -0.01184779
000160 6f c7 9d 3c c0 5b 14 bc 41 c1 c0 3c 84 74 e3 3c
       0.019260136 -0.009055078 0.02352965 0.02776552
000170 00 00 00 00 c1 35 8f bc f5 97 9d bc 00 00 00 00
       0.0 -0.017481687 -0.019237498 0.0
000180 c8 b6 1f bc aa 3e 0c bc c2 cf 3e bc 00 00 00 00
       -0.009748168 -0.008559862 -0.011646213 0.0
000190 e9 98 17 bc dc 04 14 bc 53 e0 13 bc e9 f5 a7 bb
       -0.009252765 -0.009034362 -0.009025651 -0.0051257503
0001a0 13 05 c7 bb 73 2a a0 bc bf ab e2 3c aa 6c 52 3c
       -0.006073603 -0.019551491 0.027669786 0.01284329
0001b0 bb a5 df 3b 3e ee 32 bc a1 a5 65 bc 9a ac a7 3c
       0.0068251765 -0.010921059 -0.01401654 0.020468045
0001c0 00 00 00 00 b4 e7 a9 bb 8c 59 71 bc fd 41 85 3c
       0.0 -0.005185092 -0.014730822 0.016266817
0001d0 00 00 00 00 10 a5 19 3d 55 16 34 3c 05 ce 09 bc
       0.0 0.03751093 0.0109916525 -0.008410935
0001e0 49 57 78 bc b0 3f 02 bc 00 00 00 00 d1 7c 90 3c
       -0.015157529 -0.007949755 0.0 0.017637642
0001f0 33 9d 26 3b 2b 85 36 bc a3 13 c8 bb 00 00 00 00
       0.0025423288 -0.011140148 -0.0061058565 0.0

conv2d_2/bias f4 [32]
000000 f8 0c b0 bc 00 00 00 00 e7 ff e2 3a 00 c9 0b bc
       -0.021490559 0.0 0.0017318696 -0.008531809
000010 28 7b 87 3c c2 c2 70 bc 5a eb 6a 3b 00 00 00 00
       0.016538218 -0.014694871 0.0035845847 0.0
000020 5f f9 c1 bc 51 cc f9 3c 68 ff 66 3c cb bf 36 bc
       -0.02367848 0.030492933 0.0140989795 -0.011154125
000030 b6 09 85 3c 42 4f 1d bc 09 fa b2 3c 27 e8 a4 3c
       0.016239982 -0.009601416 0.021847742 0.02013023
000040 2f b2 55 bb b9 f1 f4 bb 00 00 00 00 bc 8b 1a bc
       -0.0032607426 -0.0074751046 0.0 -0.009432729
000050 76 7b 86 bb 00 00 00 00 00 00 00 00 bd 57 8d bc
       -0.004104073 0.0 0.0 -0.017253751
000060 3e bc 6c bc 56 35 ac ba f1 06 4f bb 40 e5 54 3c
       -0.014449177 -0.0013138454 -0.003158983 0.012994111
000070 ab dc e2 bb 62 fd 8b bc b8 30 3b bc f8 26 7d 3a
       -0.0069232783 -0.017088596 -0.01142519 0.0009656991

conv2d_1/bias f4 [32]
000000 45 b4 f8 3b f1 96 71 bb 00 00 00 00 91 7c 61 bb
       0.007589849 -0.003686365 0.0 -0.0034406523
000010 25 ca 5b bc 00 00 00 00 6b e4 ee 3c ed 77 3b 3b
       -0.013414894 0.0 0.029161653 0.0028605417
000020 4b 6f 04 3d 5a d9 0a bc 13 1f 71 bc bf 66 52 bc
       0.0323327 -0.008474672 -0.014716881 -0.012841879
000030 04 94 bd bb b6 82 e6 bc 32 00 3a 3c f8 da 12 bc
       -0.005785467 -0.0281385 0.011352586 -0.008963339
000040 68 30 bd 3c 1f fe b4 3a e8 3f 92 3c b9 7b 00 3d
       0.023094371 0.0013808644 0.017852738 0.03136799
000050 d8 d1 41 39 18 fc 82 3c 91 f2 82 3b 73 5b c5 bc
       0.00018484087 0.015989348 0.0039962013 -0.024091458
000060 ec 55 26 bc 7d 06 22 bd 7e 0f cf bb c2 dd 21 bd
       -0.010152321 -0.03955697 -0.0063189855 -0.039518125
000070 c1 76 c1 3c b9 fd 6c 3c 6d 2c cc bb 3d de cc bc
       0.023616197 0.014464789 -0.006230882 -0.025008315

conv2d/bias f4 [32]
000000 24 d5 c8 3c 6e 69 96 bb fc 93 18 bd 5e e3 22 bc
       0.024515696 -0.004590205 -0.037250504 -0.009941904
000010 d0 b8 7d bc 1b b5 a2 3c 97 1e fc 3c 9c ea 63 3b
       -0.015485957 0.019861748 0.030776305 0.003477729
000020 57 57 b2 3b ae b0 42 bb 1b 42 e9 3c d5 22 ff 3c
       0.0054425406 -0.002970736 0.028473904 0.031144539
000030 59 20 e6 bc 5e 30 55 3a 9f 8e 0e bc df 7c c0 3c
       -0.028091596 0.00081325124 -0.008700996 0.023497043
000040 00 3f d2 3c f2 c6 57 3a 1d 1a b6 bb 51 1d e4 b6
       0.025664806 0.0008231244 -0.005557312 -6.7983424e-06
000050 22 39 84 bc 41 86 61 3b 3a 39 f1 3c d6 dc bc bc
       -0.016140524 0.0034412297 0.029446233 -0.023054522
000060 7e 5b 52 bc 5b 05 92 3c 00 00 00 00 8d af 6f 3c
       -0.012839196 0.01782482 0.0 0.014629257
000070 dc fb 78 3c cd 73 34 bd bc cc 1b 3c 3c b3 0a 3c
       0.015196767 -0.04405575 0.009509262 0.008465584

sequential/dense/MatMul f4 [128, 128]
000000 05 08 38 bd 07 f2 09 be 12 70 dd 3d 10 58 32 3c
       -0.044929523 -0.13471232 0.10812391 0.010885254
000010 81 f9 12 3e eb 7b 41 bd 64 a2 29 39 c4 54 0e be
       0.1435299 -0.047237318 0.00016177591 -0.13899523
000020 4c 02 d7 bd 6f bb 1c 3e d6 58 90 bd d4 e5 13 3e
       -0.10498485 0.15305875 -0.07048194 0.14443141
000030 86 31 4d 3d 8c c6 0b 3e 97 cd d2 3d a2 d7 42 3b
       0.050096057 0.13649958 0.102931194 0.0029730578
000040 d9 91 80 bc b7 f8 ba 3d ac c0 7e bd a5 92 17 3e
       -0.015694546 0.0912947 -0.062195465 0.14802034
000050 93 dc 44 3d b9 be 08 3e e4 27 5c bd cb 89 25 3d
       0.04806192 0.13354005 -0.05374898 0.040414613
000060 e8 46 b7 bd cb 92 09 3e f9 1f 07 3d 35 3c 33 3d
       -0.08949071 0.13434903 0.032989476 0.04375859
000070 52 93 98 3d 37 a4 20 bd 24 32 f5 3d 25 d3 f7 3d
       0.07449974 -0.039219107 0.11972454 0.121008195
000080 a8 0b f9 3d 34 1d 2d bd 25 72 ba 3d 0c 71 8b bd
       0.121604264 -0.04226418 0.091038026 -0.06808671
000090 30 ae 01 3e 1e 7c d3 bd 5e 6e f1 3d 00 a3 08 bc
       0.12664104 -0.10326408 0.11788629 -0.0083396435
0000a0 b3 bc 86 3d 0c 1c e4 3c 9a 40 16 3e 46 00 de 3c
       0.0657896 0.027845405 0.14673081 0.02709974
0000b0 5f db 48 be 8b f7 ed 3d dd 41 fb bd 93 eb c5 bc
       -0.19614933 0.11619481 -0.12268422 -0.024160182
0000c0 f1 a2 84 bb 43 03 08 be 9c 4c 69 3d cd 91 4a bd
       -0.0040477444 -0.13282494 0.056957826 -0.049455453
0000d0 14 ce ec 3d ea 5c f1 bd ca fc c3 3d 92 ac 23 bd
       0.11562744 -0.117853 0.095697 -0.039959498
0000e0 13 49 b4 bd 4f 94 8a 3d 99 d6 e2 bd 7a f3 02 3e
       -0.08803 0.06766569 -0.110760875 0.12788191
0000f0 af c1 db bd 0e 71 c4 bd bf 20 09 3e 85 f9 e7 bd
       -0.107303016 -0.09591876 0.13391398 -0.11326889
000100 fa 2a 34 3d 80 22 fc 3a d9 9e c3 bb 40 99 6c bb
       0.0439863 0.0019236356 -0.005969864 -0.0036102086
000110 4e 91 07 3e d3 86 85 bd 4f 5b fa bd e3 db 02 3e
       0.13239023 -0.06519856 -0.12224447 0.12779193
000120 7c 9e 81 bc 2b 3f e9 3d 77 38 9c 3d 83 fc b0 bd
       -0.015822642 0.113890015 0.07627957 -0.08641913
000130 29 a6 0f 3e 4e 21 e6 3d ac 9e b7 bd a5 57 ab bd
       0.14028229 0.11236821 -0.08965811 -0.08366326
000140 ef bb a5 3d 11 ed 5f bd 0a 4f da 3d 96 04 09 3e
       0.08092486 -0.054669444 0.10659607 0.13380656
000150 9a cb e6 3d f7 6c 04 3e a6 77 bf bd 9b db 50 3d
       0.11269303 0.12932192 -0.09348993 0.050990682
000160 2f d1 35 3d ac c6 2d be f3 a1 a0 bd d4 9d e7 3b
       0.044388946 -0.16970319 -0.07843389 0.007068375
000170 c5 86 26 3d d1 a9 42 bc b9 02 98 bd b8 03 f6 3c
       0.04065587 -0.011881308 -0.07422394 0.03003107
000180 cc 5e 05 bd 20 d6 70 3c 5f 56 3d be 4b ee 24 bd
       -0.03256111 0.014699489 -0.18489979 -0.040266316
000190 39 1e fd 3d d0 46 8f 3d 48 7d 4d 3e e7 c8 e9 bd
       0.1235928 0.06995928 0.20067322 -0.11415272
0001a0 88 6c ce bb 1b ad 4e 3c 1c 5a 82 3d 16 d7 3f bd
       -0.006299559 0.012614514 0.06364843 -0.04683598
0001b0 17 44 43 be 25 b9 86 3b 35 f4 b5 3d 8e 68 87 3d
       -0.19068943 0.0041114264 0.088844694 0.06611739
0001c0 28 8d 06 bd 12 20 26 bb f2 75 bd bd 4d d7 b3 bd
       -0.03284946 -0.0025348705 -0.09251012 -0.087813
0001d0 f0 df 0a 3e 32 05 14 be 2c 37 33 bd 20 ee 58 3d
       0.13561988 -0.14455107 -0.043753788 0.05296147
0001e0 f4 42 d4 bc 6a 06 95 3d 43 57 71 bd 6d f0 39 bd
       -0.025910832 0.07276614 -0.05892111 -0.045395304
0001f0 e8 1f a5 3d e2 f0 09 3e a6 c0 f4 bd 86 12 09 bd
       0.08062726 0.13470796 -0.11950807 -0.03346493
000200 34 de 4a 3d ba cd 97 3d 42 d9 96 3d e4 e5 42 3d
       0.049528316 0.07412286 0.073656574 0.047582522
000210 f9 d8 fb 3c 00 a3 58 3d 5a 98 2d bd c7 df e2 bd
       0.030743109 0.052889824 -0.042381622 -0.110778384
000220 fb da d3 bd 7b 14 de bd b0 dd 4c be 44 1c 0b be
       -0.103445016 -0.1084375 -0.20006442 -0.13585001
000230 4f ae b0 3d 5b 54 0d be 71 ee 28 bc 05 65 cc bd
       0.08626997 -0.1380171 -0.010310755 -0.099802054
000240 a1 f4 89 3d c2 e4 01 3e b1 49 0f 3e 0f 84 87 bd
       0.067361124 0.1268492 0.13992955 -0.06616985
000250 43 47 bd 3a 90 6b 1c be cc 0c 8a 3d 4b f7 db 3d
       0.0014440793 -0.15275407 0.06740722 0.10740527
000260 4e 26 03 3e f6 ae cd 3d 55 4e 0d 3e fd f9 50 bd
       0.12807581 0.10043137 0.13799413 -0.051019657
000270 78 3c a6 3d c8 e5 a8 3d 7b b7 85 3d d7 db d8 3d
       0.08117002 0.08246952 0.06529137 0.10588806
000280 59 e2 e9 3d 88 85 c1 3c 3d 5d eb bd 6c 08 35 bd
       0.114201255 0.023623243 -0.11492393 -0.044197485
000290 1d cd b1 bd a1 99 3a bc 8e dd 8f 3c f3 6c 01 3e
       -0.086817004 -0.011389167 0.0175617 0.12639217
0002a0 e9 41 9d bd e8 73 45 be 59 11 c1 bd 48 5e e4 bb
       -0.07678587 -0.19282496 -0.09427137 -0.006969247
0002b0 54 a6 0d 3e a7 20 10 3e c0 50 dc bd 0e 24 0f 3d
       0.1383298 0.14074956 -0.10757589 0.034946494
0002c0 0a fd 1a 3e 6f 43 89 bd 60 84 8a 3b a3 2e 71 3c
       0.15135589 -0.06702315 0.004227206 0.014720592
0002d0 aa 79 8c bc 36 81 f2 3d fe d5 09 be eb ce ce 3d
       -0.017147858 0.11841051 -0.13460538 0.1009806
0002e0 cf 84 94 3d 1e 7e 2a bd d6 39 dc 3d 11 1c fc 3d
       0.07251894 -0.04162418 0.10753219 0.12310041
0002f0 91 c7 91 3d f6 8a 65 ba 62 51 c4 b7 17 33 ec 3d
       0.071181424 -0.00087563635 -2.3402918e-05 0.11533182
000300 c0 6c 77 3d 97 c5 0d 3e 77 69 a7 3c 58 fb 76 bd
       0.060406446 0.13844906 0.020436032 -0.060298294
000310 0f db e3 bd 50 14 69 3d b5 2e a7 bd 17 01 ab bd
       -0.111257665 0.056904137 -0.081632055 -0.08349817
000320 36 e8 de 3d 9b a6 9e bd 40 da 97 bd ee 71 e0 3c
       0.108841345 -0.07746621 -0.07414675 0.027398076
000330 07 d8 17 be 70 fb 2a 3d 1b b5 5d 3d 06 5d 3d be
       -0.14828502 0.041743696 0.054127794 -0.18492517
000340 b3 63 9f 3d 8e 66 8d 3d 68 5e cf 3c ce 89 f5 bd
       0.07782688 0.069043264 0.025313571 -0.11989175
000350 63 37 5a 3d c5 68 0c 3e 4c ed 1a be 82 9a 59 bd
       0.053275477 0.13711841 -0.15129584 -0.053125866
000360 4e e5 a2 3c 31 96 22 bd f4 1e 98 3d bc 4c ac 3d
       0.019884732 -0.039694015 0.07427779 0.084130734
000370 a5 d3 17 be 01 8c af 3d a5 92 8e 3d b3 42 d5 bd
       -0.1482683 0.085716255 0.06961564 -0.104131125
000380 a6 58 80 3d 6a 16 0a be 86 e7 87 3d 7f 1b d5 3b
       0.06266908 -0.13485113 0.066359565 0.006503522
000390 3b dc 05 be 97 c5 ec 3d 1f 70 43 be 50 2f 4d 3c
       -0.13072293 0.11561125 -0.1908574 0.012523487
0003a0 d9 42 11 3e c4 62 6e 3d 86 71 71 bd 32 e3 06 3c
       0.14185657 0.05819966 -0.058946155 0.0082328785
0003b0 7b 09 0d be be 65 22 3c b7 da 29 bd 5a e6 1c be
       -0.13773148 0.009911953 -0.04146835 -0.15322247
0003c0 81 c3 39 bd fd f8 ad 3c bd f4 a7 bd d4 61 9b bd
       -0.045352463 0.02123689 -0.08200977 -0.075870186
0003d0 02 dc d7 bc f7 88 02 3e a0 fd cc bc f6 5e 21 3d
       -0.026350025 0.1274756 -0.025023282 0.039397202
0003e0 f2 4c da 3d 15 25 04 3e da 63 a8 bd 73 e7 0c be
       0.106592074 0.1290477 -0.0822217 -0.13760166
0003f0 f3 06 48 3c c6 bb 68 3d 0c 88 af bd 1f e9 e9 bc
       0.012208688 0.0568197 -0.08570871 -0.028553544

sequential/dense_1/MatMul f4 [3, 128]
000000 0b 50 1e bc 90 2d 3b be 20 50 3b be ec b2 54 3e
       -0.009662638 -0.182791 -0.18292284 0.20771378
000010 6b 5a 84 3d ed a5 96 3d 1c 19 20 3e be 6d 5d 3d
       0.06462558 0.073558666 0.15634578 0.054059736
000020 69 fa 4f be 5b 4a 3c be 17 9b ca bd 99 09 93 3d
       -0.20310368 -0.1838774 -0.09892862 0.07179565
000030 50 b2 bf 3d 45 80 22 3e ea de 13 bd d5 9f 95 bd
       0.09360182 0.15869243 -0.03610126 -0.07305876
000040 9d 54 74 3e 72 6b 29 3e 84 39 f9 bd 70 93 e0 3d
       0.23860402 0.16544893 -0.12169173 0.109656215
000050 47 9c 4b 3e e0 cd 15 3e 06 12 02 3e 9e 59 e7 bd
       0.19883834 0.14629316 0.12702188 -0.1129639
000060 79 fe 60 be 3e 5e 80 bd 59 b7 72 be 8e 60 00 3e
       -0.21972074 -0.06267975 -0.23702754 0.12536833
000070 28 7f e2 3c 25 43 59 3e db da e7 bd 30 b7 de bd
       0.027648523 0.2121702 -0.1132104 -0.10874784
000080 44 2a 0d 3e 1d 13 44 3e e2 14 4c be c3 3f 7b 3e
       0.13785654 0.19147916 -0.19929841 0.24536042
000090 7c 22 34 3d a5 5e 83 bc 49 1c 18 be 70 79 10 bd
       0.0439782 -0.016036341 -0.1485454 -0.03527206
0000a0 14 4e e0 bd ab fc 7a 3e 34 b6 48 bd d8 b5 0a 3d
       -0.10952392 0.24510448 -0.049001887 0.033864826
0000b0 9d 0e fa 3b 98 18 94 3c 87 e2 11 3e 49 77 75 3d
       0.0076311366 0.018078133 0.1424657 0.059928212
0000c0 fb 3b 3a 3c 3e 30 43 be e6 57 05 3e 9b e7 78 3e
       0.0113668395 -0.19061372 0.13021812 0.243071
0000d0 74 24 7d bc f5 b0 09 be bf 00 16 be a0 3b 5b be
       -0.015450586 -0.1344641 -0.14648722 -0.21409464
0000e0 70 aa 0e bd 38 a2 d9 3d 66 d1 d7 3d 10 03 1e 3e
       -0.03483051 0.10626644 0.105379865 0.15430856
0000f0 59 fc 0a be 1e 29 72 be 05 64 65 3d b6 a7 4e be
       -0.13572825 -0.23648497 0.05600359 -0.20181164
000100 30 3a 1a 3e 55 c0 51 bd a4 de 00 3d d9 c2 d7 3d
       0.1506126 -0.051208813 0.031462327 0.10535211
000110 cf a9 33 3d c0 7b db bc 43 e2 02 3d cc cf 4b 3e
       0.043863114 -0.026792407 0.03195406 0.19903487
000120 05 96 47 3e 69 5c aa bd 7e 8b 22 be 61 a3 3b 3e
       0.19490822 -0.08318407 -0.15873525 0.18324043
000130 f5 56 4b 3e 9a 90 1b bd c4 a1 9e 3d 81 57 26 3e
       0.1985739 -0.0379797 0.07745698 0.16244318
000140 fa ac 51 be c1 c0 be bc 7d 80 07 3e c6 da a3 bd
       -0.20476142 -0.023285272 0.13232608 -0.08000712
000150 f5 52 1b be 54 d6 6e 3e a0 02 43 3e 61 eb 37 3d
       -0.15168364 0.23323947 0.1904397 0.04490221
000160 73 d8 bc 3c 74 97 31 3e 4b 36 1c 3d 0f db 85 3c
       0.02305243 0.17342931 0.038137715 0.016339807
000170 42 61 af 3d 64 bf 0b be 36 22 85 3c bc ff 62 3d
       0.08563472 -0.13647228 0.016251665 0.05541967
000180 61 01 01 be 93 e7 60 be 5c f9 02 3e 85 9b 5a be
       -0.12598182 -0.21963339 0.12790436 -0.21348388
000190 8f 5a 52 bd cd cc f3 bd d9 ba be bd a5 12 c5 bd
       -0.051355895 -0.11904297 -0.09312982 -0.09622697
0001a0 5a fc 34 bd 50 c0 a6 bd 71 c8 3e 3e c0 d2 6c 3d
       -0.044185974 -0.081421494 0.1863115 0.057818174
0001b0 31 10 29 bd 23 1f ba bd e5 a4 8b bd 8b b2 0c 3e
       -0.041275207 -0.0908797 -0.068185605 0.13739984
0001c0 89 1c 09 3e ba 7f 2d be ab 5c 5a be 5e 93 78 3c
       0.13389792 -0.16943255 -0.21324413 0.015171854
0001d0 20 3e f9 bc ba c8 56 3d 3b 45 50 3e 1e b6 87 bd
       -0.030425131 0.05243752 0.2033891 -0.06626533
0001e0 02 57 69 be 2a 0d 4b 3e 43 20 38 be 6f 37 43 bd
       -0.22787097 0.1982924 -0.17981057 -0.047660287
0001f0 ec be 5d be 5b 1a e1 3c 0e a4 ce 3d ca d2 ce 3d
       -0.21654862 0.027478388 0.10089885 0.100987986
000200 3e ce 02 be 20 90 03 3e 04 e9 15 be 7c 7b a3 3d
       -0.12773988 0.12847948 -0.1463967 0.07982537
000210 0b 63 95 bd d0 3b 4d be 27 bf b8 bc 9a 93 7a be
       -0.072942816 -0.20042348 -0.022552086 -0.24470368
000220 b1 ae c5 bd 97 5c 3b 3e fd 80 cd 3d 8b 9e cb bc
       -0.0965246 0.18297039 0.10034368 -0.024855873
000230 50 2b 31 be d4 0b 96 bd 3e 23 17 be c8 91 91 3d
       -0.17301679 -0.07326475 -0.14759538 0.07107884
000240 a0 7c 07 3d 47 5a 73 3d ce 75 23 3d d0 57 70 3e
       0.033077836 0.059412267 0.03990727 0.23470998
000250 82 62 c2 bd 8f 2c ee 3d 17 86 55 bd b0 f2 e2 3c
       -0.09491445 0.116295926 -0.05212983 0.027703613
000260 2b aa 36 bd af 96 4e be e9 5e 33 3d 08 1d 20 bd
       -0.04459588 -0.20174669 0.043791685 -0.039090186
000270 a2 cd 6b 3d b3 27 9d bd 5d a6 7c 3e 9d b4 23 3e
       0.057569154 -0.07673588 0.24672838 0.15986867
000280 49 4d 43 bd 75 d5 41 3d ba 0c 5a bd 00 d0 cd bd
       -0.047681127 0.04732271 -0.053234793 -0.100494385
000290 ec 54 c6 bc 42 d0 4a 3e 51 63 60 be 3d 55 75 be
       -0.024210416 0.19806007 -0.21912886 -0.23958297
0002a0 7f d0 0d 3e 3b 43 b5 3d 52 33 84 be a5 e7 b1 3d
       0.13849066 0.08850714 -0.25820404 0.08686761
0002b0 61 73 3a 3e e4 fa 0a 3d c6 79 23 be 60 bb 37 3e
       0.18208076 0.033930674 -0.15964422 0.17942572
0002c0 17 47 94 bd 46 ee 2f be a1 ff 76 bd 04 b0 60 be
       -0.07240122 -0.17180738 -0.06030238 -0.21942145
0002d0 7c b4 60 3c 95 87 5c 3d a1 0d 19 be 44 57 87 3d
       0.013714906 0.05384024 -0.14946605 0.066084415
0002e0 f5 99 e9 3c ee d9 c4 bd 7c ff 16 be bb e8 26 be
       0.028515795 -0.09611879 -0.14745897 -0.16299717
0002f0 ac 35 34 3e d9 5e b0 bd ef c9 8c bd 07 95 0f 3e
       0.17598599 -0.08611841 -0.06874453 0.14021693
000300 8b 07 d8 bc ab 6b c8 bd 0d 26 4f 3e 11 00 35 bc
       -0.026370784 -0.09786161 0.20229359 -0.011047379
000310 9b c8 0a 3e 39 0e 55 be 2f a5 56 be 02 9a 22 be
       0.13553087 -0.20806207 -0.2096145 -0.15879062
000320 ff 59 13 be 89 54 2d 3e 1d 2e 38 be c0 c4 ec bd
       -0.143898 0.16926779 -0.17986341 -0.115609646
000330 91 3a 50 bd 74 4c 57 3e a5 79 06 3c 60 cc 89 be
       -0.050837103 0.21025258 0.008207713 -0.26913738
000340 25 dd 80 3e 41 29 6f be cd 7b 37 be f8 25 47 be
       0.2516872 -0.23355581 -0.1791832 -0.19448078
000350 c0 ef df 3d 75 1e 10 bd a0 43 d9 bd 94 12 32 3d
       0.109344006 -0.035185296 -0.106086016 0.04347475
000360 a5 68 4f be 4e 2a 0b 3d 10 e1 34 be 0c 0a f3 bd
       -0.20254762 0.03397589 -0.1766398 -0.11867151
000370 7f 9d fb bd 9a 2d 36 3e 75 07 56 3e cb e3 19 3e
       -0.12285899 0.17790833 0.20901282 0.15028302
000380 a9 0d 14 be f1 d8 0a 3e c5 14 69 3e a8 17 26 be
       -0.14458336 0.13559319 0.22761829 -0.16219962
000390 5a 97 08 3d 1d a3 9f bd 01 81 95 bd dd 40 e3 bd
       0.033347465 -0.07794783 -0.07299996 -0.11096356
0003a0 34 ac 39 be 96 72 4a 3c 2a 31 5a bd 7c 17 bf 3d
       -0.18132097 0.012356421 -0.053269543 0.09330651
0003b0 8d 75 19 be 8d 6c a9 3c ba 13 44 bd 9b ba 01 bd
       -0.14986248 0.020681644 -0.047870375 -0.0316721
0003c0 20 5f a9 3c 39 eb 13 3e e5 2c 34 3e d2 d5 47 be
       0.020675242 0.14445199 0.17595251 -0.1951516
0003d0 78 d6 86 3c 63 07 17 be 66 25 04 be 43 eb 45 3e
       0.016459689 -0.14748912 -0.12904891 0.19328026
0003e0 1c 00 3f 3e 9a c9 d8 bc 66 18 14 be a9 e4 98 3d
       0.18652385 -0.026463319 -0.14462432 0.074654885
0003f0 d1 52 74 3d 7f 70 29 38 ee 83 8e bc d0 cc c6 bc
       0.059649292 4.039751e-05 -0.017396893 -0.024267584

sequential/conv2d_1/Conv2D f4 [32, 3, 3, 32]
000000 18 51 08 bd a0 fc 05 bc 26 1d b9 bc 48 03 00 3d
       -0.033280462 -0.008177906 -0.022596907 0.03125313
000010 bb 77 1a bd 78 03 a6 bd 9d 78 19 bd 13 c6 46 bd
       -0.03771184 -0.0810613 -0.03746854 -0.048528742
000020 21 8d 93 bd a9 4c e7 bd ec 6f a2 bc ae 0b 3f bc
       -0.072046526 -0.11293919 -0.01982876 -0.0116604995
000030 3a 06 35 3d 68 66 58 bd d1 5b f1 bd ca 49 2d bd
       0.04419539 -0.052832037 -0.11785091 -0.0423067
000040 00 25 bc 3c 74 38 2c 3d c2 6f 6d 3a 46 e3 cb bd
       0.022966862 0.042046025 0.0009057486 -0.09955458
000050 cd df 87 3c 9e 0d 6e bd 38 1e 16 bc 71 80 25 bd
       0.016586209 -0.058118455 -0.009162478 -0.040405694
000060 79 c6 9e 3d 40 29 d4 3d ac a4 f7 bc 3d f2 7d 3c
       0.077526994 0.1035943 -0.030229889 0.015499649
000070 ab e1 e1 bd ef f9 4d bd b8 2f 8b 3d 4f bc 87 3d
       -0.11029371 -0.050287183 0.06796211 0.06627714
000080 c3 6a 25 bc 6c d4 f5 bd 1a ae b4 bd a7 39 08 3d
       -0.010096255 -0.12003407 -0.0882227 0.033258107
000090 35 c5 5f bd f2 f2 e0 3d 28 d6 6a 3c 13 af eb 3d
       -0.05463143 0.10983838 0.014333285 0.11508002
0000a0 0a 65 66 bd 00 d4 aa bd 5b 78 65 bd ee fc 0a bd
       -0.056248702 -0.08341217 -0.056022983 -0.03393262
0000b0 7b f4 96 3d 32 44 83 bc 8c f7 8d bd 60 1f cf 3d
       0.0737085 -0.016023729 -0.069319814 0.10113406
0000c0 a1 50 bb bd fe 9a 78 3c 6d ce 7b bd 8d 4c 68 bd
       -0.09146238 0.015173672 -0.06147616 -0.05671363
0000d0 91 f6 c3 3d 47 ee 49 bd 8e 6a d4 3d 46 59 e3 3c
       0.09568513 -0.049299505 0.10371886 0.02775253
0000e0 b3 8d d9 3d 23 ac 86 bd 18 28 1c bc 63 44 16 be
       0.1062273 -0.06575801 -0.0095310435 -0.14674525
0000f0 d0 60 87 bd 36 a7 91 3d 8d 13 50 3c 5b 9b 5c 3c
       -0.066102624 0.07111971 0.012699974 0.013464774
000100 c2 c5 2a 3d d2 8b bd 3d e7 4a 91 3d f0 d5 9c 3b
       0.041692503 0.09255184 0.070943646 0.0047862455
000110 d6 55 01 3d 6b 72 9d 3d 3f a6 18 bd 85 ec 72 3d
       0.031576 0.07687839 -0.03726792 0.059307594
000120 56 5d 2e 3c 1e f8 07 be 5b 12 0b bd 24 84 1c 3c
       0.01064237 -0.13278243 -0.033953052 0.009552989
000130 29 fa d5 3c c2 b6 f9 ba 91 b5 b2 3d d0 6f 72 bd
       0.026120262 -0.0019051658 0.08726037 -0.059188664
000140 33 51 a7 bc 3d f2 36 bd db 92 3b 3d 77 9f cd 3c
       -0.020424461 -0.04466461 0.04579435 0.025100453
000150 58 9e 5a 3d f8 c1 9d bc b8 b6 ba bc 23 ed da bd
       0.053373665 -0.01925753 -0.022792205 -0.106897615
000160 48 2d 25 3d 4a a3 b4 bd 80 dc 1b 3a 2b 5f ee bd
       0.040326387 -0.088202074 0.0005945638 -0.116392456
000170 0a a6 93 3b 1b 2e 97 3d a1 38 35 bd f9 50 17 3c
       0.0045058774 0.07381841 -0.04424346 0.009235614
000180 d1 ad 82 3d dd f5 c1 bd 51 56 42 bb 5e 74 10 3d
       0.06380809 -0.09470723 -0.00296535 0.035267226
000190 95 9a 80 bd c6 f9 62 3d ef e4 11 be 1d c3 af bc
       -0.06279484 0.055413984 -0.14247487 -0.021455342
0001a0 a5 e2 4e bd d5 52 e2 bc cf 2a 0a 3c 20 49 89 3a
       -0.050509114 -0.027627388 0.008433058 0.0010474063
0001b0 69 4b 9d bd 3a 6b 56 bc b7 28 b5 bd 2a 4a e8 3c
       -0.07680399 -0.013087088 -0.08845656 0.028355677
0001c0 ef a8 90 bd 1d 4a c3 3d 58 44 97 3d 72 f4 67 bc
       -0.070634715 0.0953562 0.073860824 -0.014157401
0001d0 de 61 0a 3b df 5e c5 3c 2a a2 f0 3d 15 e2 a8 3d
       0.0021115462 0.02409309 0.1174968 0.08246247
0001e0 97 11 82 3b 38 17 d9 3d a4 5d bf 3d ca 03 7c 3d
       0.003969382 0.10600132 0.093440324 0.06152705
0001f0 2f 43 4d bd 5a 83 a5 3d 54 8c 31 3d 34 c1 8e 3d
       -0.0501129 0.08081694 0.043346718 0.06970444
000200 97 fe 13 be 3e 62 a3 bb e4 8e e0 3d 58 4a 6c bd
       -0.14452587 -0.0049860766 0.10964754 -0.057688087
000210 5b 60 95 bd 49 79 61 bd 3c 5b c7 bd 95 fd a9 bd
       -0.07293769 -0.055047307 -0.097341985 -0.0830032
000220 9b 81 89 bb 2b e2 9e 3d 61 d5 db bd 3c da 15 3d
       -0.0041963584 0.07757982 -0.10734058 0.036585078
000230 10 1d 2a bd d1 c4 87 bd 2e 37 03 bd dc 67 81 3d
       -0.041531622 -0.066293366 -0.032035045 0.06318638
000240 b8 e6 90 bd 59 f4 82 3d 22 39 ad bc 55 6c 82 3d
       -0.07075256 0.06394262 -0.021145407 0.06368319
000250 db e7 f0 3d c9 39 b1 bd 65 38 a6 bd ab 17 a5 bd
       0.11762973 -0.086536 -0.08116225 -0.08061155
000260 9e ee 98 3d 4e a3 b7 3d 1a 78 80 3d 65 93 fd bc
       0.074673876 0.08966695 0.062729076 -0.030954072
000270 5b be 11 3d 13 a3 ad bd 6b 15 2a bd 0c 57 bd 3b
       0.035581928 -0.084783696 -0.041524332 0.005778199
000280 49 83 90 bd 62 6b 90 3d 03 bc 1a bd 6c 2c 76 bd
       -0.07056291 0.07051732 -0.03777696 -0.060100958
000290 37 fd 86 bd a8 21 ab bb 79 61 18 bd 30 27 80 3c
       -0.06591266 -0.005222518 -0.037202332 0.015643686
0002a0 0d b2 c2 3d 52 8a 38 bd 34 24 80 bd 7a 5a 0d bd
       0.09506617 -0.045053788 -0.06256905 -0.034510113
0002b0 06 45 48 3c c8 b4 51 bc 16 15 4e bc d6 00 39 3b
       0.012223488 -0.012799449 -0.0125782695 0.0028229258
0002c0 01 74 94 3d 6d af 69 bd c5 7a bb 3d df 40 a6 bd
       0.072486885 -0.057052065 0.09154276 -0.08117842
0002d0 a2 72 12 3d 6d f2 ff 3c f2 e1 aa bd 36 22 b5 bb
       0.035753854 0.031243527 -0.08343877 -0.00552776
0002e0 e8 1f bf 3d 8f f5 dd bc 59 cd 97 bd fb 34 85 3d
       0.093322575 -0.02709463 -0.07412214 0.06504246
0002f0 43 c4 3e bd b5 9a a3 3c 4b 06 a3 bb 6b 92 7f 3c
       -0.04657389 0.019971231 -0.0049751154 0.015598874
000300 42 53 17 bd 0e 0d 73 bc fb 9b 18 3d 33 55 84 bd
       -0.036944635 -0.014834655 0.03725813 -0.06461563
000310 e8 ae ee bc ba 9f 5c 3c 8b 95 06 bd 57 d5 50 3d
       -0.029136136 0.013465816 -0.03285746 0.050984707
000320 83 fb 48 bd 5c eb 84 3d d4 f9 99 3d f3 7b a3 3d
       -0.049067985 0.06490204 0.07518354 0.07982626
000330 46 49 7f 3d aa 4e cb bd 9e 81 3a 3d 6a 0a 11 3d
       0.06232574 -0.09927113 0.04553377 0.035410322
000340 32 f5 b1 bd a9 12 2d 3d bd f7 92 3d 2f d4 8a 3c
       -0.086893454 0.042254124 0.071761586 0.01694688
000350 bc f9 47 bd 4c db 73 3c a7 63 bd 3d d0 8c 74 bd
       -0.04882215 0.014883827 0.09247523 -0.0597046
000360 89 5d 98 3d ed 1c 89 bc fa 4d b6 3d 89 a9 3e bc
       0.074397154 -0.016737426 0.089015916 -0.0116371
000370 b3 47 a3 bd ba 51 af 3d e9 12 81 bd fa c4 87 3d
       -0.0797266 0.0856051 -0.06302435 0.06629367
000380 12 54 cb bd 74 fe b5 3d 32 bc dc 3c 42 e3 ff 3d
       -0.099281445 0.08886424 0.026945207 0.12494518
000390 07 c5 de bd 41 12 6e 3d 3a e0 98 bd 52 b7 e0 3d
       -0.10877424 0.058122877 -0.07464643 0.109724656
0003a0 b5 2a a5 3d ac b7 55 bd 30 3e 9a ba 45 36 b8 bd
       0.08064786 -0.052177116 -0.0011767801 -0.08994726
0003b0 a6 3c 43 3d 83 ad 6b 3d c9 01 7b bd 30 ab bd 3d
       0.04766526 0.05753852 -0.061281 0.09261167
0003c0 4b 7e c4 bd 6d 65 bf ba 00 1f 5b 3d c7 6e f7 3d
       -0.09594401 -0.0014602371 0.05349636 0.12081676
0003d0 91 f3 d6 3d 15 de 46 bd 88 cd bf 3d 00 57 9e bd
       0.10495675 -0.048551638 0.09365374 -0.07731438
0003e0 b2 3a 73 3d 61 47 75 3d 30 c1 1a 3d 0b 31 fe 3c
       0.059382148 0.059882525 0.037781894 0.031029245
0003f0 2f ab 9a bd 2f d5 c8 bc 06 2d 8b bb 7a 0a ac 3b
       -0.07552182 -0.024515716 -0.0042473106 0.0052502723

sequential/conv2d_2/Conv2D f4 [32, 3, 3, 32]
000000 82 52 9f bd c1 03 9a bd 28 c1 bd 3c e6 7a 9a 3d
       -0.07779409 -0.07520247 0.023163393 0.07542972
000010 ac 79 c8 3b 8b b9 42 bd ef 87 0e bd 63 61 e2 bc
       0.00611802 -0.04754023 -0.034797605 -0.027634328
000020 89 12 c2 bd d4 03 40 3d 0f 38 64 3d c4 b5 5f 3d
       -0.094761916 0.04687865 0.055717524 0.054616705
000030 a2 d3 8c 3d 73 9b f1 3d 6c 3f 1a 3d 53 85 cd bd
       0.06876303 0.11797228 0.03765814 -0.10035195
000040 5c cd ac 3c ec 68 c0 3d b7 fb c5 3d b0 d3 18 3d
       0.021094017 0.09395012 0.096671514 0.037311256
000050 c8 ee 7e bd 35 fb 9a bc e6 a9 1a bd 31 ed e2 3d
       -0.06223944 -0.018918613 -0.037759684 0.11080397
000060 ce e7 e5 bb 1f 7a 22 3d 50 92 2b 3c a0 bd c0 3d
       -0.0070161587 0.039667245 0.010471895 0.09411168
000070 ef 8f 52 bd 58 0e fa bd 70 1f 17 bc 31 0b 8d 3c
       -0.051406797 -0.12209767 -0.009223804 0.01721725
000080 05 f6 20 3c 4a 3f 8f bd 1b 7c 52 bd d0 cd 19 3c
       0.009824281 -0.06994493 -0.051387887 0.009387448
000090 d5 7a 8b 3c 44 1e 6b 3d 47 31 a9 bc b6 39 b7 bc
       0.017026344 0.05740191 -0.02065338 -0.022366386
0000a0 66 37 4c 3d 90 18 0c 3d 9f 6c dc 3d b5 e7 3e 3d
       0.04985752 0.034203112 0.10762905 0.04660769
0000b0 0a d9 45 bd 37 f3 c5 3d eb ad 76 bd 7f 74 b9 bc
       -0.048302688 0.0966553 -0.060224455 -0.022638557
0000c0 13 2a c3 3d 2b 71 96 3d 69 cf f0 ba 42 58 28 bd
       0.095295094 0.07345804 -0.001837236 -0.041099794
0000d0 cb 53 f4 3d c4 a1 3d 3e 9b 28 10 3d a4 65 67 3d
       0.11930045 0.1851874 0.035194974 0.056493416
0000e0 d0 1a b1 3b 2e 27 8e bc a7 c2 c2 3d 2d 34 15 3e
       0.0054048076 -0.017352667 0.09509783 0.14570685
0000f0 d8 db 2a bd c6 b7 30 bd 26 13 a7 3d 4f c4 b8 3d
       -0.041713566 -0.04314401 0.08157949 0.09021818
000100 66 67 c5 bd a2 d0 90 bd e0 cb ab bd 0b 34 78 bd
       -0.09638862 -0.070710436 -0.083884954 -0.060596507
000110 1e 1c f7 3d 5a 80 3c bd 64 69 fa bd c1 0e 99 3d
       0.1206591 -0.046020843 -0.12227133 0.07473517
000120 1b 92 be 3d a6 21 8c bd c4 b2 38 bd 20 dc 78 3d
       0.09305211 -0.068423554 -0.04509236 0.060756803
000130 c7 4a a3 3d dc 18 f0 3c e0 2e 14 bc ee 82 a6 3c
       0.07973247 0.029308729 -0.009044379 0.020326104
000140 4f 68 44 3d d4 90 18 3d 86 55 05 3e 7d aa 65 3d
       0.04795104 0.037247494 0.13020906 0.056070793
000150 f8 d5 b2 3d f9 de 2b 3e b9 6d 03 bd 2f 90 06 bd
       0.087322176 0.16784276 -0.03208706 -0.032852348
000160 26 96 ef bc 9d 5e bb 3d 5d 22 92 bd 72 7e f2 bc
       -0.029246401 0.091489054 -0.071354605 -0.02960131
000170 cf d6 15 3d 0a fa f5 bd f3 4f 89 3d 6a 1a 78 3c
       0.03658181 -0.12010582 0.06704702 0.015143016
000180 98 cc 52 3d 6f 5c 71 bd 4b ac 60 bd 1c ab 51 3d
       0.051464647 -0.058926042 -0.05485181 0.051188573
000190 39 94 5e bc 04 f3 87 3c 31 3b 9f bd 55 7c f1 3b
       -0.013585144 0.016595371 -0.07774962 0.007369558
0001a0 4f e0 ef bd 00 af 94 bb 75 14 0f 3d ec f2 21 3d
       -0.11712705 -0.004537463 0.03493162 0.03953831
0001b0 ab 3e 8d 3c 3e c3 e2 3c 45 0a 98 3b 4a 47 56 3d
       0.017241796 0.02768099 0.004639896 0.05231408
0001c0 64 81 0c be 3e 8e 99 bd 93 98 b7 bd 5e 14 bc bc
       -0.13721234 -0.07497834 -0.08964648 -0.02295893
0001d0 f0 3f 0b 3c ec 71 6e 3d ae 67 a2 bd b1 b9 73 bd
       0.008499131 0.058214113 -0.079299316 -0.05950326
0001e0 e4 c1 37 3d 10 39 58 3d 35 70 25 3d 8e 1c 8e 3d
       0.044862643 0.052788794 0.040390212 0.0693904
0001f0 4f bc 67 3b c9 a4 7c bd a9 12 02 3d 9e ce 9e 3d
       0.0035360043 -0.06168059 0.031756077 0.07754253
000200 dd cc ad 3c 95 07 6c bd 08 41 f1 bc 2e 21 20 bd
       0.02121585 -0.05762442 -0.029449955 -0.039094143
000210 f3 6f e9 3d 31 24 b7 bd 4e c8 79 3c 20 10 84 bd
       0.11398306 -0.0894245 0.01524551 -0.06448388
000220 b4 68 77 bd 00 f1 bf 39 a1 45 a8 bd ad 5a b2 3c
       -0.060402587 0.00036609918 -0.08216406 0.021771753
000230 ef 26 c3 bc e2 06 7d 3d ed 1b bc bc 39 6d 89 3d
       -0.023822276 0.061774142 -0.022962535 0.06710286
000240 1c dc 81 3d 18 3b 34 3d ef 02 c5 3d 16 93 cc bd
       0.06340811 0.04400167 0.096197 -0.09988992
000250 ca 8d 4c 3a eb 24 2c 3c 82 00 88 3d e8 1a ac bd
       0.00078031106 0.010506849 0.06640722 -0.084035695
000260 2f 72 94 3d 4e 5a c4 3c 2e 0c 03 3d 56 38 a8 3d
       0.07248341 0.023968842 0.031994037 0.0821387
000270 8b bd be bd eb fd 93 bd b4 7f 0d bd 9a 3f 3a 3d
       -0.09313496 -0.072261654 -0.034545615 0.04547081
000280 ea ad 28 3d ba 26 02 bd d2 a5 95 3d 0d a4 96 3d
       0.041181482 -0.031775214 0.07307018 0.07355509
000290 c8 e3 14 3d 10 d7 17 3c b7 f9 c3 bd 4d 3f cc bd
       0.03635004 0.0092675835 -0.09569114 -0.09973011
0002a0 6e 3b 7c bd 90 33 a1 3d ff 85 dc 3c 54 bb ad bd
       -0.061580114 0.07871163 0.026919363 -0.08482996
0002b0 5b 2e af 3d e2 c7 7f 3d 67 c7 33 3d ff 9f 87 bd
       0.085537635 0.062446482 0.043891337 -0.06622314
0002c0 a8 48 90 3d a8 58 a9 3d 62 10 97 3d 10 90 78 bd
       0.07045108 0.08268863 0.07376172 -0.060684264
0002d0 c0 6b 5c 3d c9 4a 00 3e c2 94 8d bd 38 c8 aa bc
       0.053813696 0.12528528 -0.06913139 -0.020847425
0002e0 6f 9c 16 3d 73 d9 a6 3d 57 d0 6e 3d ce dd a0 bd
       0.03677028 0.08146944 0.058304157 -0.07854806
0002f0 e5 aa dd bc ea f8 85 bd 8a 86 4b 3d 13 7b 95 bd
       -0.027059028 -0.06541617 0.049688853 -0.07298865
000300 fb 4b ef ba b8 69 c5 3d cc ba 86 3d 0a 41 12 bd
       -0.0018256897 0.09639305 0.065785974 -0.035706557
000310 58 6d 6c bc 20 50 c7 bb 5f 38 04 be 8e 75 60 bd
       -0.014430366 -0.0060825497 -0.12912129 -0.05479961
000320 48 f4 a4 3c 6a 6c 49 bd 23 d0 21 bd fe 39 1d bd
       0.020136014 -0.049175657 -0.039505135 -0.038385384
000330 cd 1a 37 3a f3 aa b4 3d d8 8b e0 bc 56 72 3f 3c
       0.00069848896 0.088216685 -0.027410433 0.011684975
000340 95 91 05 be 78 69 64 bd 78 fc 89 bd 28 5f c5 3b
       -0.13043816 -0.055764645 -0.06737608 0.0060233064
000350 36 a2 87 bc cf db 50 3d 82 50 cb 3a da 07 98 3d
       -0.01655684 0.050990876 0.0015511664 0.074233726
000360 da ef a6 3d 37 e5 d5 bd 0b b6 ae 3d ac 9f 84 3d
       0.08151217 -0.1044411 0.08530816 0.064757675
000370 54 f0 6f 3c 6f f7 54 3d 50 f4 d9 3b 66 40 d9 bd
       0.014644701 0.051993784 0.006651439 -0.10607986
000380 2f 47 ca bd bc 39 7b 3d 94 8e ca bc 4e e1 3e bd
       -0.098768584 0.061334357 -0.02472619 -0.046601586
000390 32 b7 a0 3b 38 5f aa 3d c2 85 ce 3c fe 6c 07 be
       0.004904651 0.08318943 0.025210265 -0.13225171
0003a0 d6 17 6c 3d fc d1 9e bd 50 49 83 bd 2a 2e a1 3d
       0.05763992 -0.07754895 -0.064104676 0.07870133
0003b0 53 e5 a8 bc 61 d5 9b bc f1 f6 ee ba dd 36 29 ba
       -0.020617163 -0.019022645 -0.0018231553 -0.00064550136
0003c0 af d4 b0 3d 1a b3 d7 3d 58 0c d2 b8 17 aa 2f bd
       0.08634316 0.10532208 -0.000100158795 -0.04288682
0003d0 99 9c 90 b9 4e ab 5a bd 91 0a b8 bd d0 85 77 3d
       -0.00027582495 -0.053386025 -0.089863904 0.060430348
0003e0 1d 0e 6a bd 14 7e 27 3d de 99 e7 bc 49 d4 32 bd
       -0.057142366 0.04089172 -0.028271612 -0.043659482
0003f0 13 7a 12 bd df e6 b5 3b 4c 8b 07 3d ad a5 3d bc
       -0.03576095 0.0055512036 0.03309183 -0.011575145

sequential/conv2d/Relu;sequential/conv2d/BiasAdd;sequential/conv2d_2/Conv2D;sequential/conv2d/Conv2D;conv2d/bias f4 [32, 3, 3, 3]
000000 8a 06 42 39 55 86 0c ba 0b b3 95 b9 10 37 26 b9
       0.00018503718 -0.0005360593 -0.00028552892 -0.00015851506
000010 61 8a fa b9 8a c8 1f b8 02 1c 94 b8 7b 0c 97 39
       -0.00047786816 -3.809532e-05 -7.062407e-05 0.00028810263
000020 30 7c 18 3a a6 fb cb b9 c1 da 0e ba 9c a3 fe 39
       0.0005816845 -0.0003890667 -0.0005449467 0.00048568554
000030 d0 ec 54 b6 eb 7f 07 ba b6 89 c0 39 05 ad 02 b9
       -3.1728305e-06 -0.00051689026 0.00036723696 -0.00012462221
000040 e3 b5 d5 b8 64 9d 14 3a 7a bf 39 39 ef 2c 47 b9
       -0.000101905105 0.0005669205 0.00017714305 -0.00018994858
000050 89 40 eb b9 c4 3b 7b b9 b3 ff 0f 3a 3a 33 c9 b9
       -0.00044870775 -0.0002395949 0.0005493119 -0.00038375874
000060 34 33 a7 b5 ba 60 82 39 e6 a1 16 3a 23 21 89 39
       -1.2457372e-06 0.000248676 0.00057461706 0.00026155365
000070 08 42 57 38 de 36 c3 39 96 91 01 ba 10 d1 29 39
       5.132149e-05 0.00037234178 -0.00049426535 0.00016194978
000080 b2 1c c7 38 d8 83 b4 b9 54 35 07 3a 0e 28 4b b9
       9.4944044e-05 -0.00034430507 0.0005157788 -0.0001937451
000090 32 a0 64 b9 a9 59 c4 39 36 5f 41 39 89 ca d8 39
       -0.00021803452 0.00037450835 0.00018441383 0.0004134963
0000a0 b6 28 e1 b9 a7 4d cb 38 0b ed 04 ba 10 5a 04 ba
       -0.00042945676 9.694258e-05 -0.00050707225 -0.0005048821
0000b0 48 27 e6 39 2b 28 c9 37 83 bd de b9 50 41 23 3a
       0.00043898285 2.3979772e-05 -0.00042484337 0.0006227689
0000c0 d5 f6 c9 39 bc 8f ce 38 4f 10 f2 39 27 13 1e b9
       0.00038521612 9.849618e-05 0.00046169988 -0.00015075189
0000d0 3c 24 0b 3a 9b 55 b7 b8 15 a7 00 ba 7f 42 0f 3a
       0.00053078285 -8.742065e-05 -0.00049077097 0.0005464926
0000e0 86 f3 6e 39 13 f7 ae 39 7b 7c c2 39 cd a5 9a b8
       0.00022788168 0.0003337195 0.0003709531 -7.374175e-05
0000f0 cd a5 0a b9 05 05 2a b9 93 34 1d 3a 33 4a 18 39
       -0.00013222471 -0.00016214333 0.0005996909 0.00014523491
000100 33 2d 2e b7 52 84 bc 39 cc 0e 02 39 4c 16 05 b9
       -1.0381732e-05 0.0003595674 0.00012403278 -0.00012692175
000110 88 33 08 3a 16 4c b3 39 fe df 9f b9 1c 99 dc 39
       0.0005195667 0.0003419823 -0.0003049373 0.00042075745
000120 dc a4 e1 b9 5c ff 96 39 df f1 12 3a e8 47 78 39
       -0.00043038174 0.00028800487 0.00056054996 0.0002367791
000130 e4 e3 f9 b9 84 fb b7 b9 3f 34 95 39 27 9b c5 39
       -0.00047662773 -0.00035091874 0.0002845842 0.00037690366
000140 96 2e 44 38 e9 af 09 3a 54 b3 93 b9 32 17 b6 39
       4.6773428e-05 0.0005252348 -0.00028171635 0.00034731027
000150 f7 39 6c 39 7c 40 72 39 f0 ab 96 39 8b 34 e3 38
       0.00022528307 0.00023102941 0.00028738333 0.000108339904
000160 e4 6f a4 b9 95 06 ba 39 9a 33 c6 37 47 b0 a2 39
       -0.00031363883 0.0003548159 2.3627468e-05 0.00031030385
000170 34 90 7b b9 af c9 ae b9 d7 3e b2 39 a1 ba 23 b9
       -0.00023990945 -0.00033338132 0.00033997625 -0.00015614416
000180 d3 c0 a2 39 e4 3d 07 ba 45 38 76 b7 d1 c4 2d 39
       0.00031042713 -0.0005159064 -1.4675844e-05 0.00016571885
000190 70 dc 6d b9 5a 27 ab b9 84 79 9e 39 ad 72 9d b9
       -0.000226842 -0.0003264498 0.00030226645 -0.00030030814
0001a0 62 21 0e ba 39 75 dd 39 1c fa 1d 39 a4 3c 36 37
       -0.00054218445 0.00042239742 0.0001506586 1.0862164e-05
0001b0 f6 6b 13 ba 63 1d e4 39 ae 85 b1 39 45 51 d3 b9
       -0.00056236924 0.00043509444 0.0003385967 -0.00040305607
0001c0 d9 ea 0e 3a 1e 0c 22 39 8f 54 63 b7 41 37 4c b8
       0.0005451865 0.00015454038 -1.3549942e-05 -4.868885e-05
0001d0 0d 91 f7 38 ec d3 cd 39 e2 64 01 3a 0b bf a1 39
       0.000118048956 0.0003925854 0.0004935992 0.0003085065
0001e0 4a 4f e5 38 2b 41 01 39 c0 c7 98 38 bd 62 8f 39
       0.0001093434 0.00012326676 7.285131e-05 0.0002734865
0001f0 d0 56 42 39 55 56 be 39 ba 71 0d ba 61 a8 84 b8
       0.00018533622 0.00036303946 -0.000539567 -6.3256135e-05
000200 3d 08 07 3a 38 0f fe b9 04 67 af 38 ff ce 45 b9
       0.0005151069 -0.00048457994 8.3638384e-05 -0.00018864496
000210 a4 0a 82 b9 4c c9 e7 39 27 55 12 b8 08 0b 10 b7
       -0.0002480346 0.0004420973 -3.4888417e-05 -8.585637e-06
000220 51 e8 b1 b9 9b 70 0b 3a f0 7f 02 39 5a 6c c9 b9
       -0.0003393316 0.0005319209 0.00012445427 -0.00038418436
000230 05 6a 03 3a 09 94 06 3a 34 0b 8d 39 5d 58 e7 39
       0.00050130516 0.00051337533 0.00026901963 0.0004412559
000240 6b 80 f0 39 eb 27 30 39 f4 0f a6 b9 79 61 93 b9
       0.00045872046 0.00016799539 -0.00031673873 -0.00028110648
000250 df 29 0e ba 7e 5e 0b ba 2f 88 c1 b8 ed b3 fa 37
       -0.00054231094 -0.00053165096 -9.228323e-05 2.9886107e-05
000260 44 f9 ef b9 c8 17 5b 39 b5 31 71 b9 1c bf ac 39
       -0.0004577135 0.00020894327 -0.00023002068 0.00032948784
000270 e3 d7 0f 37 5a 90 61 b9 e3 de f4 38 4d b3 97 39
       8.573729e-06 -0.00021511447 0.000116763425 0.00028934554
000280 6f 23 9a b9 85 13 c7 39 de 92 2e 38 d8 69 31 b9
       -0.0002939957 0.0003797078 4.1621613e-05 -0.00016919465
000290 cd cb a0 b7 97 bf 85 39 3b 14 47 b8 77 c8 9d 39
       -1.9168388e-05 0.00025510482 -4.746414e-05 0.00030094731
0002a0 87 ed f2 38 f0 c0 79 b9 59 ff 1f 39 4b 73 4b 39
       0.00011583702 -0.00023818365 0.00015258546 0.00019402539
0002b0 4c 5c cb 38 55 53 0f 3a ad 00 d2 39 4b ce 93 b9
       9.696986e-05 0.00054674345 0.00040054825 -0.00028191725
0002c0 c8 a4 ef 38 3e a6 10 39 58 a2 48 b9 eb 7d d8 38
       0.00011427101 0.0001379484 -0.00019133964 0.00010323137
0002d0 02 67 2e b9 05 58 c1 b9 76 cf ba 38 df fa d3 38
       -0.00016632307 -0.00036877408 8.907814e-05 0.000101079924
0002e0 c7 3d 2c 38 be b2 9f b9 32 0a c2 b9 b8 72 3c ba
       4.106553e-05 -0.00030460017 -0.0003701016 -0.0007188725
0002f0 32 04 d8 b8 b9 b6 02 38 6e c5 5c b9 bb 5f e5 38
       -0.00010300464 3.116459e-05 -0.00021054383 0.00010937402
000300 f8 4a 57 39 b9 4b 3c 39 8b f3 9f b9 54 f9 a6 38
       0.00020531926 0.00017957286 -0.00030508297 7.961938e-05
000310 dd 88 83 b9 80 b3 2a ba 07 2e bf 39 97 bb 02 39
       -0.00025088238 -0.0006511733 0.00036464652 0.00012467649
000320 63 f7 f1 39 2c f1 99 b9 9a 8b 2b 39 81 e7 71 b9
       0.0004615142 -0.0002936212 0.00016359836 -0.00023069793
000330 1a e1 08 ba a5 13 a7 39 ea ae 07 b8 12 27 65 39
       -0.0005221531 0.00031867358 -3.234941e-05 0.00021853697
000340 9a 5a de b9 c0 e5 13 b8 37 82 20 39 f0 28 f5 39
       -0.00042410643 -3.5261502e-05 0.00015307298 0.00046760542
000350 a4 ac 5d b8 87 76 e7 39 a4 6d 16 ba ab 29 fa b9
       -5.285129e-05 0.00044148063 -0.00057383836 -0.0004771476
000360 33 ab 36 39 1a 42 97 39 8f 58 ec 38 5b 3c 36 b9
       0.00017420649 0.00028850214 0.00011269852 -0.00017379357
000370 46 6a 53 b9 dd 36 92 39 6b 6e f3 b8 07 77 ec 39
       -0.00020162118 0.00027888166 -0.0001160771 0.0004510211
000380 c7 f2 9d b9 97 45 3c b8 de 0f a0 b8 33 15 14 ba
       -0.00030126257 -4.4887503e-05 -7.63235e-05 -0.0005648911
000390 11 23 b0 39 c7 d6 03 39 a0 bb fc b6 e6 b8 c7 b9
       0.00033595462 0.00012573144 -7.5320277e-06 -0.00038093998
0003a0 0f 7c cb 39 f5 c3 ac 39 b2 d2 ce b9 fe 17 43 b9
       0.00038811608 0.00032952396 -0.00039448362 -0.00018605587
0003b0 d3 c4 b5 39 30 b2 e2 b9 f9 07 0f ba 2f c1 12 ba
       0.00034669656 -0.0004323884 -0.0005456205 -0.00055982446
0003c0 96 56 87 b9 a7 f9 5d 39 e6 8a a9 b9 d2 55 88 b9
       -0.00025813718 0.00021169205 -0.0003233768 -0.00026003883
0003d0 30 2d be b8 d7 53 c2 39 8f de e1 38 30 a5 49 39
       -9.068323e-05 0.0003706503 0.00010770291 0.00019230391
0003e0 7d 01 21 39 e4 6a 19 ba d9 27 48 38 6f d2 06 ba
       0.00015354711 -0.0005852415 4.7720827e-05 -0.00051430514
0003f0 f6 80 64 39 7e 80 ad b9 3c e7 40 36 e0 cd ec b9
       0.00021791816 -0.00033092865 2.8744826e-06 -0.00045166817
